resources/connect4.pt (torch, 30394 bytes, 5 tensors)

weight f4 [128, 42]
-0.19756974 -0.2378581 0.17050147 0.26604033 -0.046847824 0.18826206 -0.20050596 -0.56616604
-0.15843895 0.15323675 -0.014920604 0.059974164 -0.16587505 -0.16866344 -0.46103063 -0.38755444
-0.24081263 -0.048009586 0.28374842 0.14191748 0.15124212 -0.38292167 -0.0499802 0.03155784
0.32773894 0.4056834 -0.19147587 -0.11625687 0.040036872 0.22170347 -0.10963357 -0.11303045
0.028851999 0.098299146 0.20202504 0.2527685 0.25022113 -0.1744185 0.035842758 0.10585714
0.24625242 -0.93536013 -0.3989025 0.058880668 0.18470679 0.4756939 -0.060833942 -0.0630414
-0.06185336 -0.11529412 -0.46322244 -0.08877696 0.6749849 -0.8325516 -0.14876546 0.50634
-1.010111 2.564082 -1.2166961 -1.0712571 -0.021782687 -0.6233466 -0.70446754 -0.0024813872
-0.26562765 -0.45750713 0.06174046 -0.42185104 -0.1060887 0.016835814 -0.6668416 -0.29718924
0.18190907 -0.12262478 0.8241614 -0.03696475 0.21487083 0.16237421 -0.12861992 0.22329938
0.4978065 0.053803366 0.30869862 -0.48517495 -0.28405163 0.12945172 -0.6448516 -0.55605775
0.41933754 -0.3482772 -0.48192725 -0.54421395 1.7107317 -2.4491045 0.3735806 0.99519557
-0.17560254 -0.41265267 -0.24911538 -0.12722838 -0.41641876 0.07986581 -0.11824418 -0.3963285
0.40831077 -0.06663552 -0.11560976 0.33309728 0.3505389 0.30825642 0.50539416 0.49813968
-0.24893337 -0.08291389 0.25110385 -0.16069947 -0.6180019 -0.15256187 0.14238188 -0.11715188
0.36015105 -0.33632252 -0.27832845 0.34640893 -0.54266495 0.3442187 -0.07814031 0.4304002
0.96409565 -0.4992198 0.60170776 -0.31241384 -0.03510981 0.07588649 -0.32566956 -0.32257724
-0.26108617 -0.79664147 -0.19810104 0.27130932 0.21679023 -0.40353838 -0.009317356 0.6388841
0.09029869 -0.16776918 -0.0884333 -0.4515192 0.47530615 -0.044942707 0.20299387 -0.60960907
0.28262413 0.3296348 -0.48265952 0.14433224 -0.42939574 0.67047673 0.004400622 0.0040302696
-0.21502407 -0.39488393 0.08981262 0.20977284 0.16741918 0.5690759 -0.25033164 -0.5851968
-0.013355034 0.2007413 0.29413658 0.2900982 -0.31135648 0.1015044 0.621089 -0.4394629
0.25047696 -0.053147882 0.18796735 -0.21354298 0.49207953 -0.044385646 -0.3536477 -1.3703249
0.41218007 0.812275 -0.5420863 -0.58519906 0.68108255 0.46742794 0.27903748 -0.63675207
-0.5482027 -0.507024 0.013402262 0.5705528 -0.6129854 0.07233552 -0.42693225 0.52811337
-0.06099855 -0.20284367 -0.46849445 0.11479863 -0.10387424 0.51728624 0.53354084 0.11127725
-0.13397458 -0.15046212 -0.33859438 -0.29990834 -0.6035153 -0.8110469 -0.03597729 0.1873625
-0.17354171 0.3076903 0.28098425 0.11172878 0.33359498 0.12756497 0.14258909 0.060528155
0.25019854 -0.045415036 -0.42856026 0.22806224 -0.21942407 0.13900152 -0.14965959 0.017550083
0.009847404 -0.22453155 -0.08401947 0.037230752 -0.15173145 0.031139009 -0.23617755 -0.10282266
-0.10210971 -0.5702764 0.71732885 1.0430231 -0.39246964 0.28369975 -0.49814516 -0.43651927
0.92337614 1.8158398 0.12531301 -0.4109615 -0.18775973 0.06385071 0.54230714 0.23060122
00000000: b94f 4abe 1391 73be f097 2e3e 7036 883e
00000010: 81e3 3fbd c5c7 403e 6f51 4dbe 42f0 10bf
00000020: d23d 22be 18ea 1c3e 8d75 74bc 78a7 753d
00000030: 26db 29be 1cb6 2cbe 350c ecbe 896d c6be
00000040: 9697 76be b3a5 44bd 7947 913e d152 113e
00000050: 37df 1a3e 4f0e c4be 0ab8 4cbd cb42 013d
00000060: 66cd a73e bcb5 cf3e 4012 44be 1518 eebd
00000070: b4fd 233d 3c06 633e 9187 e0bd 827c e7bd
00000080: 075b ec3c 1051 c93d a7df 4e3e df6a 813e
00000090: fc1c 803e c39a 32be dbcf 123d a1cb d83d
000000a0: 9829 7c3e c373 6fbf f33c ccbe db2c 713d
000000b0: c723 3d3e 278e f33e 032d 79bd d91b 81bd
000000c0: f359 7dbd 531f ecbd 7e2b edbe b2d0 b5bd
000000d0: cfcb 2c3f 1a22 55bf f955 18be 809f 013f
000000e0: 514b 81bf eb19 2440 b3bc 9bbf f41e 89bf
000000f0: 9b71 b2bc a593 1fbf fc57 34bf c59e 22bb
00000100: 5900 88be 603e eabe 91e3 7c3d dcfc d7be
00000110: 0845 d9bd 43eb 893c 22b6 2abf 3029 98be
00000120: 5f46 3a3e b322 fbbd 3efc 523f 5a68 17bd
00000130: 1907 5c3e 6d45 263e f1b4 03be 98a8 643e
00000140: 7ee0 fe3e eb60 5c3d bf0d 9e3e da68 f8be
00000150: 376f 91be fe8e 043e ff14 25bf cd59 0ebf
00000160: 69b3 d63e 6451 b2be 2bbf f6be 9b51 0bbf
00000170: 42f9 da3f 21be 1cc0 f545 bf3e 23c5 7e3f
00000180: 27d1 33be 3647 d3be 1a18 7fbe 2848 02be
00000190: d734 d5be b090 a33d 012a f2bd 92eb cabe
000001a0: 1c0e d13e 3478 88bd cfc4 ecbd ba8b aa3e
000001b0: d679 b33e c9d3 9d3e 8361 013f 2a0c ff3e
000001c0: 64e8 7ebe c2ce a9bd af90 803e 678e 24be
000001d0: 5f35 1ebf 2e39 1cbe 8ecc 113e 53ed efbd
000001e0: b865 b83e 7732 acbe 1181 8ebe 835c b13e
000001f0: 17ec 0abf 6f3d b03e 0708 a0bd 6a5d dc3e
00000200: f9ce 763f bd99 ffbe 8509 1a3f b5f4 9fbe
00000210: 4ecf 0fbd 606a 9b3d 29be a6be d828 a5be
00000220: 16ad 85be b2f0 4bbf 00db 4abe 0ee9 8a3e
00000230: 42fe 5d3e 959c cebe d3a7 18bc e98d 233f
00000240: 85ee b83d afcb 2bbe 851c b5bd 862d e7be
00000250: 545b f33e d815 38bd a0dd 4f3e 570f 1cbf
00000260: 1cb4 903e e4c5 a83e 261f f7be d5cb 133e
00000270: c2d9 dbbe 5da4 2b3f 1833 903b 5a10 843b
00000280: 452f 5cbe 3a2e cabe aeef b73d b1ce 563e
00000290: ef6f 2b3e f5ae 113f 782b 80be 75cf 15bf
000002a0: 13cf 5abc 218f 4d3e 1299 963e c087 943e
000002b0: 1e6a 9fbe 8ae1 cf3d b0ff 1e3f 4801 e1be
000002c0: 843e 803e 98b1 59bd 837a 403e 03ab 5abe
000002d0: d9f1 fb3e b9cd 35bd 5011 b5be ce66 afbf
000002e0: 4409 d33e 41f1 4f3f 2bc6 0abf 9bcf 15bf
000002f0: 6d5b 2e3f b752 ef3e 00de 8e3e 2f02 23bf
00000300: 0357 0cbf 53cc 01bf 2995 5b3c c00f 123f
00000310: 9cec 1cbf a524 943d dd96 dabe 7032 073f
00000320: 9ed9 79bd 40b6 4fbe 81de efbe 8b1b eb3d
00000330: 04bc d4bd df6c 043f 2296 083f 54e5 e33d
00000340: a230 09be be12 1abe 3e5c adbe 968d 99be
00000350: fb7f 1abf c5a0 4fbf ec5c 13bd f5db 3f3e
00000360: ebb4 31be 9589 9d3e 2bdd 8f3e 0fd2 e43d
00000370: f6cc aa3e 64a0 023e e002 123e 5fec 773d
00000380: 061a 803e 1e05 3abd 406c dbbe 2689 693e
00000390: b4b0 60be 6a56 0e3e 5d40 19be 31c5 8f3c
000003a0: 0257 213c 99eb 65be 6612 acbd 467f 183d
000003b0: 7d5f 1bbe 3c17 ff3c 87d8 71be b094 d2bd
000003c0: e51e d1bd a2fd 11bf dda2 373f c881 853f
000003d0: c8f1 c8be 1841 913e e20c ffbe 747f dfbe
000003e0: 6162 6c3f 706d e83f 0e52 003e 8c69 d2be
000003f0: 1644 40be 29c4 823d a4d4 0a3f ba22 6c3e

bias f4 [128]
0.26862136 -0.24834074 -0.22276768 0.25203001 0.83583796 0.06073935 0.39136928 -0.15767515
-0.1238646 0.5797195 0.32481074 0.36913902 0.5127859 0.10928653 -0.053450137 0.48972836
0.25803742 0.5793505 -0.07656666 -0.19797353 -0.26185468 0.38421842 -0.019413928 0.4861703
0.43696707 0.07536758 -0.14648835 -0.1216777 -0.050015565 -0.12576549 0.30303133 -0.01916158
-0.013702277 0.028672658 0.084342554 0.0932807 -0.067746185 0.94710153 0.005157759 -0.24851544
0.17910375 -0.03489721 0.4165743 0.6555857 0.02140214 0.07804501 0.3193706 0.008068939
0.16464537 0.0118523 -0.12608536 0.33665025 -0.046654075 -0.21685795 0.27525783 -0.086280726
0.63500255 -0.11791674 -0.11944296 0.22606236 -0.1825708 -0.33678386 -0.071165495 0.08815345
-0.2008301 0.1743884 -0.24979578 0.41504458 -0.1736946 -0.16674604 0.1329934 -0.13997236
0.6473277 0.48067206 -0.28010884 0.43819478 0.39769495 -0.10633221 0.25065467 0.12000547
0.110028274 0.0897803 0.062399983 0.40693408 -0.09627399 -0.22140531 -0.12667142 -0.030619407
0.2669015 0.41080302 0.23314278 0.33268693 -0.06335421 0.21704541 -0.009473692 0.66411424
0.55420214 0.4120062 -0.26232973 0.46888062 0.035673846 -0.021871386 0.22443047 -0.033532247
0.31433102 -0.2781899 0.48649076 0.022802835 0.13755028 0.12692434 0.5223735 -0.009024538
-0.32192796 0.6374205 0.7881694 0.03278932 0.355938 -0.03775067 0.054653753 0.12663269
-0.08587417 0.49383542 0.10994818 0.54491824 -0.23638466 0.2998076 0.4395158 0.30086637
00000000: bd88 893e 094d 7ebe 361d 64be 140a 813e
00000010: 7af9 553f d3c9 783d 8e61 c83e 9875 21be
00000020: b9ac fdbd 7f68 143f 984d a63e caff bc3e
00000030: f045 033f 9ed1 df3d 88ee 5abd adbd fa3e
00000040: 7b1d 843e 5050 143f fbce 9cbd 93b9 4abe
00000050: d111 86be 47b8 c43e f509 9fbc 50eb f83e
00000060: 26ba df3e 515a 9a3d 0b01 16be 2832 f9bd
00000070: 1fdd 4cbd abc8 00be ec26 9b3e bff8 9cbc
00000080: 847f 60bc ece2 ea3c cabb ac3d f409 bf3d
00000090: 83be 8abd 3f75 723f 6b02 a93b d57a 7ebe
000000a0: f966 373e 60f0 0ebd 3a49 d53e 77d4 273f
000000b0: 8a53 af3c 10d6 9f3d 8b84 a33e 9533 043c
000000c0: cc98 283e 2630 423c 851c 01be 6c5d ac3e
000000d0: 5818 3fbd 0310 5ebe 98ee 8c3e f3b3 b0bd
000000e0: 878f 223f 557e f1bd 839e f4bd e47c 673e
000000f0: d7f3 3abe ef6e acbe 37bf 91bd cc89 b43d
00000100: 68a6 4dbe df92 323e 77ca 7fbe b980 d43e
00000110: ffdc 31be 79bf 2abe 6c2f 083e ea54 0fbe
00000120: 45b7 253f a61a f63e 6d6a 8fbe 115b e03e
00000130: ac9e cb3e b4c4 d9bd cf55 803e 6ec5 f53d
00000140: 8156 e13d bcde b73d 2097 7f3d aa59 d03e
00000150: 4c2b c5bd 13b8 62be 27b6 01be 8dd5 fabc
00000160: 50a7 883e c654 d23e fbbc 6e3e f155 aa3e
00000170: dabf 81bd 2741 5e3e 8b37 1bbc 6403 2a3f
00000180: 31e0 0d3f 7af2 d23e 1550 86be 1f11 f03e
00000190: bd1e 123d 9f2b b3bc 1ad1 653e 1c59 09bd
000001a0: ffef a03e e86e 8ebe 5115 f93e 03cd ba3c
000001b0: fbd9 0c3e 74f8 013e 45ba 053f a8db 13bc
000001c0: bed3 a4be fd2d 233f 78c5 493f 184e 063d
000001d0: 813d b63e 72a0 1abd 9ddc 5f3d 00ac 013e
000001e0: ccde afbd ffd7 fc3e 832c e13d c37f 0b3f
000001f0: d20e 72be 6280 993e 3708 e13e 280b 9a3e

weight f4 [7, 128]
-0.42020223 -0.07198924 0.6843777 -0.16362236 -0.08517637 0.3210425 -0.6408574 0.5026722
0.46591553 -0.3434199 0.53929996 -0.83161867 0.38086167 0.71554345 0.3013833 -1.0098228
0.13913605 0.09315819 -0.9938156 0.50513256 -0.24995168 0.14462985 -0.41463703 0.30401775
0.4840665 -0.19174667 0.7347115 0.84713036 0.0141961705 -0.08365789 0.58620775 0.6150158
0.56100184 -0.29328212 0.4542311 0.25263608 -0.19336134 -1.3036761 -0.42942706 0.48350668
-0.02744113 -0.34512377 0.6280691 -0.35066244 -0.18620388 -0.8721481 0.31480363 0.6694502
-0.49537808 -0.35628688 -0.24499151 -0.18688852 0.4628763 -0.22052048 0.72023624 0.45592436
-0.70478183 0.30241024 0.30204964 -0.4078304 0.42843145 -0.30554008 -0.57976645 -0.7339332
0.2622372 0.32338047 0.9033948 0.61760294 -0.29293963 0.52086407 0.6455928 0.0065088077
-1.022089 -0.70898914 0.8962237 -0.013858209 -0.15779608 0.2847814 -0.22619966 0.5846724
0.57217276 0.35505164 0.13885655 -1.1204249 -0.1399443 -0.062694535 -0.44910988 -0.50149465
-0.08735257 -0.9737147 0.30008706 -0.48782688 0.5379643 0.37799186 -0.59446734 -0.98865306
-0.78260493 -0.50284046 -0.30863762 -0.4320799 -0.4214292 0.008708296 0.5054648 -0.35204744
0.10257519 0.19928882 -0.55603665 0.17578943 -0.22581732 0.58411 -0.45474574 -0.55335146
0.13302898 -0.97031206 -0.5860855 0.056550775 0.46052957 -0.013410809 0.011632526 -0.23882528
0.6839098 -0.6432112 -0.58560765 -0.7861046 -0.2225429 0.60241383 0.1902343 -1.0326366
0.066371374 0.35162774 -1.8156576 0.30735546 -1.4936088 0.09987252 -0.66994685 0.63546276
0.33859017 -0.10265856 0.13425939 0.18268134 -0.09318644 -0.402633 0.35428292 0.08810539
0.02749528 -0.75599104 0.9805896 0.027024806 0.35112497 -0.25534594 0.099129826 -0.51043314
-0.65301067 0.55954707 -0.3476753 -0.6285759 0.9986233 0.54464215 -0.6632812 -0.36061502
-0.009237636 -0.17297676 -0.73546827 0.6401907 -0.28135845 0.22081904 0.3532621 0.6395827
-0.08985603 1.1692971 -0.7056666 -0.7243971 -1.634814 0.0065905815 -1.3151968 -0.34868917
0.10116175 0.78894883 0.77098256 0.58940417 -0.07670272 0.53929085 -0.43772584 -1.1204009
-0.18760587 0.3571537 0.22008154 0.36996102 0.46224704 0.6776454 -0.1834411 1.0123969
-0.91764164 -0.0040432 -0.18200661 -1.2934718 -0.04949511 0.47425735 -0.5140212 0.48074743
-0.12598372 0.20236482 -0.18591884 -0.78712136 0.17692348 0.1626898 0.15584151 0.28076357
-0.24333842 0.0022630705 -0.35730517 -0.71888787 -1.3365551 0.4431715 0.4086719 0.05955386
-0.86696714 0.08147159 -0.23321542 0.39042062 -0.5295329 0.10002325 0.590154 0.019486839
0.13206322 0.34705666 0.45079172 0.13048261 -0.13463882 0.4149896 -0.4622638 0.8308359
-0.11054889 0.3214965 -1.2352655 -1.5638453 -0.95922834 0.8894732 -0.760639 0.01486372
0.35090765 0.08526052 -1.3030196 0.8045799 -1.0765253 -0.09778245 -1.4841459 -1.173563
-0.18377085 -0.6973403 0.5432632 -0.07235891 -0.3895421 -1.6995325 0.5895052 0.16388202
00000000: bf24 d7be 186f 93bd 6033 2f3f 9f8c 27be
00000010: f370 aebd af5f a43e 3b0f 24bf 20af 003f
00000020: 7b8c ee3e bcd4 afbe 900f 0a3f f6e4 54bf
00000030: 4d00 c33e db2d 373f e94e 9a3e e041 81bf
00000040: ae79 0e3e b9c9 be3d b36a 7ebf 5e50 013f
00000050: 55f3 7fbe d919 143e 4e4b d4be 37a8 9b3e
00000060: 90d7 f73e 3d59 44be 0e16 3c3f 89dd 583f
00000070: 0e97 683c d454 abbd b611 163f ad71 1d3f
00000080: d19d 0f3f 1329 96be fb90 e83e 8459 813e
00000090: 8400 46be dcde a6bf dddd dbbe 308e f73e
000000a0: 38cc e0bc 10b4 b0be 23c9 203f 078a b3be
000000b0: 3bac 3ebe 1945 5fbf f12d a13e 1761 2b3f
000000c0: 32a2 fdbe 3c6b b6be 0edf 7abe b45f 3fbe
000000d0: 1ffe ec3e 1fd0 61be 6761 383f eb6e e93e
000000e0: 956c 34bf 84d5 9a3e 40a6 9a3e 25cf d0be
000000f0: 5e5b db3e c06f 9cbe 936b 14bf 0ce3 3bbf
00000100: f443 863e 2092 a53e e244 673f 3a1b 1e3f
00000110: 2ffc 95be 5957 053f 9245 253f d647 d53b
00000120: d0d3 82bf 5080 35bf eb6e 653f 8b0d 63bc
00000130: 4c95 21be dece 913e e2a0 67be 17ad 153f
00000140: ea79 123f 54c9 b53e 6930 0e3e 156a 8fbf
00000150: 8f4d 0fbe fe65 80bd bbf1 e5be f461 00bf
00000160: e7e5 b2bd 5e45 79bf 03a5 993e 72c4 f9be
00000170: 07b8 093f 2688 c13e 032f 18bf 5e18 7dbf
00000180: cc58 48bf 27ba 00bf c005 9ebe 9439 ddbe
00000190: 91c5 d7be 3ead 0e3c 2466 013f 903f b4be
000001a0: f112 d23d 5e12 4c3e 6b58 0ebf 2502 343e
000001b0: a83c 67be 3c88 153f 6fd4 e8be 71a8 0dbf
000001c0: c038 083e 5f66 78bf b309 16bf c9a1 673d
000001d0: 88ca eb3e 03b9 5bbc 5a96 3e3c 9d8e 74be
000001e0: b614 2f3f 7da9 24bf 62ea 15bf 273e 49bf
000001f0: 49e2 63be cb37 1a3f c8cc 423e 702d 84bf
00000200: b7ed 873d 8d08 b43e 7867 e8bf b25d 9d3e
00000210: 932e bfbf f789 cc3d a381 2bbf b0ad 223f
00000220: b15b ad3e a73e d2bd 4b7b 093e d110 3b3e
00000230: 88d8 bebd ea25 cebe 9264 b53e 9970 b43d
00000240: c83d e13c a188 41bf ec07 7b3f 2063 dd3c
00000250: a7c6 b33e b4bc 82be 9404 cb3d bfab 02bf
00000260: b52b 27bf 7a3e 0f3f 7f02 b2be 5aea 20bf
00000270: c7a5 7f3f ab6d 0b3f cccc 29bf 88a2 b8be
00000280: 7459 17bc d220 31be a647 3cbf 8ae3 233f
00000290: 370e 90be 631e 623e c5de b43e b1bb 233f
000002a0: 7006 b8bd 87ab 953f 91a6 34bf 1772 39bf
000002b0: 9641 d1bf cef5 d73b 5e58 a8bf 6387 b2be
000002c0: e42d cf3d 8df8 493f 1d5f 453f 31e3 163f
000002d0: 5116 9dbd f70e 0a3f 9a1d e0be 4c69 8fbf
000002e0: c11b 40be dadc b63e 0e5d 613e 886b bd3e
000002f0: a5ab ec3e 2b7a 2d3f fcd7 3bbe 3996 813f
00000300: 90ea 6abf d27c 84bb f15f 3abe 7c90 a5bf
00000310: 62bb 4abd dcd1 f23e e596 03bf 8724 f63e
00000320: e001 01be b938 4f3e 8261 3ebe c980 49bf
00000330: 6e2b 353e 2898 263e eb94 1f3e 3ec0 8f3e
00000340: b52d 79be 0650 143b b4f0 b6be 0909 38bf
00000350: 3d14 abbf 60e7 e23e 713d d13e c0ee 733d
00000360: 8ff1 5dbf 94da a63d 06d0 6ebe 36e5 c73e
00000370: 788f 07bf fdd8 cc3d 5514 173f dda2 9f3c
00000380: 953b 073e 69b1 b13e 2cce e63e 3c9d 053e
00000390: c2de 09be 8479 d43e d7ad ecbe a9b1 543f
000003a0: 7567 e2bd 309b a43e 2e1d 9ebf 152c c8bf
000003b0: fd8f 75bf 84b4 633f 3db9 42bf f686 733c
000003c0: 2baa b33e 119d ae3d 59c9 a6bf f3f8 4d3f
000003d0: 95cb 89bf 2a42 c8bd 7ef8 bdbf 5037 96bf
000003e0: 6d2e 3cbe e584 32bf 4c13 0b3f e930 94bd
000003f0: 1072 c7be 488a d9bf d0e9 163f b0d0 273e

bias f4 [7]
-0.14473389 -0.0949086 0.28278172 0.34050673 -0.2397419 -0.090636425 -0.13805687
00000000: 1f35 14be 715f c2bd c4c8 903e e656 ae3e
00000010: e77e 75be 979f b9bd c85e 0dbe

weight f4 [1, 128]
0.1954777 0.022061344 0.044937614 -0.08884058 0.03485511 0.19321087 0.07341197 -0.007331917
-0.10821175 0.107841484 -0.08944742 -0.049930863 0.049090885 -0.05335426 0.096887365 -0.11013449
-0.07558787 0.10605945 0.02084012 -0.07784331 0.1446422 0.17360877 -0.020909665 -0.011408559
0.010402765 -0.017631115 0.15928571 -0.01140621 -0.015533069 0.06222968 0.020739947 -0.0326201
-0.10812366 -0.16346878 -0.055331178 0.050095927 -0.13465406 0.2076077 -0.06407774 -0.042483628
-0.069296725 -0.038287625 0.0050698365 0.028102871 0.009765145 -0.015816007 0.026364788 -0.116124675
-0.07423204 -0.014294114 0.0007669489 0.038073007 0.16135772 0.012540263 0.022067184 -0.051180173
0.004467537 -0.0032329133 0.06760701 0.006609583 -0.0055266083 0.091011666 0.0047699097 -0.0040152036
-0.08860975 -0.09922642 0.13003515 -0.0546302 0.026891978 -0.24287789 0.08719314 -0.068818636
0.12353858 0.15907829 0.07374156 -0.056017622 -0.09258829 0.04125565 -0.11994554 -0.044811152
-0.03435971 0.019084187 -0.060772736 -0.0042172177 -0.053973306 -0.0907626 0.06959121 -0.011408912
-0.10984889 -0.110832125 0.06296548 -0.01738997 -0.031059874 0.00044867146 -0.03133974 0.05806556
0.12864244 0.00087714475 -0.012842639 -0.107827656 0.0024528473 0.047658358 0.12004347 -0.019562766
0.13327314 0.084504716 -0.050867654 -0.024403507 -0.008214036 -0.03867624 0.048932347 0.05563837
0.020961 0.07936755 0.017068662 -0.039711427 -0.0005054888 -0.03237307 -0.042567473 -0.018471666
-0.09843006 0.016357774 0.054331627 0.038549528 0.045755103 -0.03384117 0.00511902 -0.048633993
00000000: 4e2b 483e feb9 b43c 8110 383d 0df2 b5bd
00000010: 3bc4 0e3d 12d9 453e 0459 963d 9440 f0bb
00000020: 1f9e ddbd ffdb dc3d 3530 b7bd 4e84 4cbd
00000030: 8613 493d ff89 5abd e26c c63d 318e e1bd
00000040: d0cd 9abd b235 d93d e6b8 aa3c 506c 9fbd
00000050: 161d 143e 7fc6 313e bf4a abbc f7ea 3abc
00000060: 5c70 2a3c 216f 90bc cb1b 233e 1de1 3abc
00000070: 6a7e 7ebc 8de4 7e3d d2e6 a93c a79c 05bd
00000080: f06f ddbd 5c64 27be f2a2 62bd 6331 4d3d
00000090: c1e2 09be 1d97 543e 313b 83bd 5003 2ebd
000000a0: 71eb 8dbd 7cd3 1cbd df20 a63b fe37 e63c
000000b0: fdfd 1f3c 9290 81bc f8fa d73c c6d2 edbd
000000c0: f806 98bd dc31 6abc 120d 493a 71f2 1b3d
000000d0: f53a 253e ad75 4d3c 3dc6 b43c 4da2 51bd
000000e0: 6b64 923b 49df 53bb 8b75 8a3d 3395 d83b
000000f0: 8d18 b5bb 5364 ba3d e74c 9c3b f891 83bb
00000100: 0779 b5bd 3937 cbbd ef27 053e ebc3 5fbd
00000110: 914c dc3c fbb4 78be 5192 b23d c9f0 8cbd
00000120: cc01 fd3d 6be5 223e d105 973d bc72 65bd
00000130: ee9e bdbd affb 283d 02a6 f5bd e68b 37bd
00000140: c4bc 0cbd 7156 9c3c d5ec 78bd 9630 8abb
00000150: 1d13 5dbd bee1 b9bd d685 8e3d 72ec 3abc
00000160: 74f8 e0bd f4fb e2bd 0cf4 803d 6975 8ebc
00000170: 4771 febc aa3b eb39 195e 00bd 27d6 6d3d
00000180: d8ba 033e 30f0 653a ef69 52bc bfd4 dcbd
00000190: f3bf 203b 6935 433d 5ad9 f53d 1842 a0bc
000001a0: c178 083e cf10 ad3d 9a5a 50bd dde9 c7bc
000001b0: 2a94 06bc fa6a 1ebd 496d 483d 0fe5 633d
000001c0: 67b6 ab3c 748b a23d 94d3 8b3c 73a8 22bd
000001d0: c782 04ba a099 04bd 3b5b 2ebd e451 97bc
000001e0: b395 c9bd bd00 863c d78a 5e3d 1ce6 1d3d
000001f0: b469 3b3d 0a9d 0abd 74bd a73b 7034 47bd
